model/wdgrl_1.pth (torch, 8096 bytes, 17 tensors)

net.0.weight f4 [10, 1]
00000000: 10a8 8dbe 68bb b73e 7047 73be 60a6 25bd
00000010: a87a 763f 6031 2dbf a602 673f 0095 593e
00000020: a4ee 7abf 9096 09bf
-0.27667284 0.35885167 -0.2375772 -0.04044187 0.9628091 -0.67653465 0.90238416 0.21248245
-0.98020387 -0.53745365

net.0.bias f4 [10]
00000000: 0066 b6bd cca1 66bf e8ec 553e 9872 6b3e
00000010: d8bd 3e3f 1c0f d73e 94af d8be f099 283e
00000020: 7010 e43e a6a8 39bf
-0.08906174 -0.9009063 0.20891154 0.22992933 0.7450843 0.42003715 -0.42321455 0.16464972
0.4454379 -0.7252296

net.2.weight f4 [10, 10]
00000000: 52fa 85be 0aa8 4b3e 886a 173d 009c cb39
00000010: be9d 10be 3a02 3dbe a213 80be 42d5 52be
00000020: 46be bbbd 2049 833d b8e9 283e fac2 92be
00000030: 3491 fa3d 505b 08bd c064 44bd a2ec 99be
00000040: b843 0a3e 9232 5c3e 2a02 51be d2f8 5f3e
00000050: da53 78be f07c 323d aa22 7e3e e07c bdbc
00000060: 1c92 053e 02f0 90bd 5614 8abe 80e4 423c
00000070: 909e b5bc 79d8 9e3e 9006 e8bd fa7c 703e
00000080: 78cd 66bd da8c 62be 5a03 043e 46b1 92be
00000090: f22a 483e 3dbd 3fbe 5a74 54be 1ce1 d83d
000000a0: f947 813e b284 4fbe 10a1 e6bc 1233 9dbe
000000b0: 0d18 86be e322 16be f219 253e 18be ff3d
000000c0: 6090 06bd b66f 153e 7835 efbd a076 213e
000000d0: 50ce 023d 6c0c 893d dcce de3d d4aa 69be
000000e0: 9a32 c9bd 8617 30be 26c0 1b3e dcb2 52be
000000f0: 3e2b 353e 3087 62bd 0ad1 473e a83a 09bd
00000100: eac2 0a3e e4ca 14be f097 ea3c b62d 003e
00000110: 2821 863d 1cd3 cd3d 0c84 fcbd 002d c8bc
00000120: be52 453e 6429 913d e717 833e 1170 82be
00000130: 02c0 4c3e a3b9 8d3e d854 80be c66b e4bd
00000140: 924c ebbd d6a8 9cbe b6d8 27be c0dd 353d
00000150: e0ab 083d 0ade 6e3e 3ad4 8fbe bfe1 02be
00000160: 309f dcbd 50c4 803d d661 523e d503 803e
00000170: 8a01 443e 0a21 8dbd 5ee2 523e f2b9 163e
00000180: 5c96 c93d ccd3 8fbe a8a3 f03d 001c cabd
-0.26167542 0.1988832 0.03696683 0.00038835406 -0.14122674 -0.1845788 -0.2501498 -0.20589164
-0.09167151 0.06410432 0.16495407 -0.2866438 0.122347265 -0.033290207 -0.047947645 -0.3006335
0.13502395 0.21503666 -0.20410982 0.21872261 -0.24250737 0.04357618 0.24817911 -0.023130834
0.13044018 -0.07077028 -0.2696864 0.011895299 -0.022170335 0.3102453 -0.11329377 0.23485175
-0.056348294 -0.22124043 0.12891904 -0.28650874 0.19547632 -0.18724532 -0.2074751 0.10589811
0.25250223 -0.20265463 -0.028152972 -0.30703026 -0.26190224 -0.14661746 0.16123179 0.124874294
-0.03285253 0.14593396 -0.1168012 0.15767908 0.031935036 0.066918224 0.10879299 -0.22819072
-0.098241046 -0.17196473 0.15210018 -0.20576042 0.17692277 -0.055304706 0.19513336 -0.033503205
0.13550916 -0.14530522 0.028636903 0.12517437 0.06549293 0.100500315 -0.123298734 -0.02443552
0.19269845 0.07087973 0.25604174 -0.25476125 0.1999512 0.27680692 -0.2506473 -0.11153369
-0.11489214 -0.30597562 -0.16391262 0.04440093 0.033367038 0.23326889 -0.28091604 -0.12781428
-0.1077255 0.06287444 0.20545134 0.25002924 0.19141212 -0.06891067 0.20594165 0.1471937
0.09843132 -0.28091276 0.11749965 -0.09868622

net.2.bias f4 [10]
00000000: a257 56be 32d5 293e 5d26 933e ec7c 81be
00000010: 126a 603e e059 4fbc 0b0c 8f3e 4089 2e3e
00000020: 149e a43d d035 6f3d
-0.20931867 0.16585234 0.28740206 -0.2529062 0.21915463 -0.012655705 0.27938876 0.17044544
0.080379635 0.05840093

net.4.weight f4 [10, 10]
00000000: 0671 23be 4cc7 913d 4c39 2b3e 88c1 63bd
00000010: fa4e 703e a4c9 283e b4a7 1e3e 9e0f 683e
00000020: b4e9 073e aa87 88bd f219 2c3e 16d5 acbd
00000030: cf55 20be 7c69 243e 4673 4d3e c8de c23d
00000040: 701e a3bc 201a c33c f31d 79be 81f4 0cbe
00000050: 2e8e 343e e686 cfbd 80fc 1dbd 60b4 dabc
00000060: 20ad 0dbc 2c98 bb3d 6271 62be 22f1 34be
00000070: 37cd 913e 5cea 6fbe b966 24be 4681 3e3e
00000080: 8025 41bd 0996 83be 763e 4e3e 632f 993e
00000090: 9c61 d43d caaf 52be 687b 003d 7eab 6c3e
000000a0: bbdf 8d3e 1865 bbbd 4014 cd3d 365f 683e
000000b0: e69c 7f3e a5e7 943e 1430 9abe 5ade 413e
000000c0: 48ec 1c3e 3ef7 30be 6614 043e 141f 2b3e
000000d0: fcf3 c03d b04c 703d 1699 513e 242d 933d
000000e0: 7068 aabc 9600 493e a40f 043e f9dd 8f3e
000000f0: 9b25 82be cd91 87be 7032 1f3d 20da 17bd
00000100: fe20 123e a050 8dbc b8e8 3fbd 2775 9cbe
00000110: 2e2e 5ebe ecae 803d 8099 0e3e 0662 2a3e
00000120: f4c5 353e b324 8c3e 1c82 9e3d f83a 5e3d
00000130: 403b e3bb a705 863e e60c 673e a6bd 3c3e
00000140: 76ff 4e3e c075 8abb 0a55 473e d9ee 22be
00000150: 5020 803c 8009 50bd 3809 59be 8090 61bd
00000160: 4868 c2bd 4eaf 793e aaba 9cbd a273 463e
00000170: e09b 35bd 08cc 143d db4c 3bbe 8c41 95bd
00000180: c8dd c6bd 40f4 7c3d 7424 47be 8c82 233e
-0.15961084 0.07118091 0.16721076 -0.055604488 0.23467627 0.1648317 0.15493661 0.22662207
0.13272744 -0.06666501 0.16806772 -0.084390804 -0.15657733 0.16055864 0.20063505 0.095151484
-0.019911975 0.023816168 -0.24327831 -0.13765146 0.17632362 -0.10133152 -0.03857088 -0.026697338
-0.008647233 0.09159884 -0.22113565 -0.1767011 0.2847688 -0.23429245 -0.1605481 0.18604001
-0.047154903 -0.25700405 0.20141014 0.29918966 0.1037018 -0.2057487 0.03136769 0.23112294
0.27709755 -0.091501415 0.10013628 0.2269257 0.24962196 0.2908298 -0.30114806 0.18932477
0.15324509 -0.17281815 0.12898406 0.16711074 0.09421536 0.058666885 0.20468554 0.07186344
-0.020801753 0.1962913 0.12896591 0.2809904 -0.25419316 -0.26478425 0.03886646 -0.037073255
0.14270398 -0.017250359 -0.046852797 -0.3055813 -0.21697304 0.06283364 0.13925743 0.16638955
0.17751294 0.2737175 0.0773966 0.054255456 -0.0069345534 0.26176187 0.22563514 0.1843172
0.20214638 -0.0042254627 0.19466034 -0.15911426 0.015640408 -0.05079031 -0.21194923 -0.055069447
-0.09492546 0.2438328 -0.07652791 0.19380048 -0.044338107 0.036327392 -0.18291037 -0.07287893
-0.0971027 0.061756372 -0.194475 0.15967768

net.4.bias f4 [10]
00000000: 4602 7c3e d8b8 c33d 30ac 203e 0810 70be
00000010: d0ce 07be a893 1f3d 9aad c3bd 9e74 8fbd
00000020: 2c1c 31be ac28 eabd
0.24610242 0.095567405 0.15690684 -0.23443615 -0.13262486 0.038959175 -0.09554596 -0.07004665
-0.17295903 -0.11433539

net.6.weight f4 [10, 10]
00000000: 2a05 703e 84d8 323e 0a27 18be 590e 93be
00000010: 914b 983e 24ed f73d 18c2 0f3e b64b 8abd
00000020: b6dd 6cbe 05bf 9cbe 1459 e13d 6c26 26be
00000030: 6860 8dbd 6653 333e 56f2 103e 430b 833e
00000040: f235 8cbd 3eaa 52be da62 543e cffb 823e
00000050: 0003 693c 6fed 27be 00cb 743b e61a 07be
00000060: 6903 81be 8a12 6c3e a0c3 7abc 1baa 9b3e
00000070: fa0c 613e e068 4fbc 74c3 8fbd f862 7b3d
00000080: 3cc7 d93d 81f1 8cbe d65d 95be ccc6 9f3d
00000090: c0ba cb3d a2fd 9abd 3857 143e d884 b2bd
000000a0: 20b4 dbbc 09f9 88be 186a 86be 3216 75be
000000b0: 4f51 49be ea82 6b3e 8a4d 45be ba71 2d3e
000000c0: 2290 473e da69 4fbe 184a ab3d e43e dc3d
000000d0: a0af 343d e889 833d 757a 7ebe 4ec9 763e
000000e0: 2069 70be 0078 173c 40b8 fd3b 5c6a cb3d
000000f0: 044b 50be 73cd 2ebe 62df 1fbe c2bb 6a3e
00000100: 59bb 23be 02d7 6e3e bd2c 82be fca7 353e
00000110: e01e 38bc e021 f13d 8636 783e d45e 91be
00000120: c018 d23b 8093 61bb 5ec6 8fbe 239d 9e3e
00000130: ccc1 1c3e 7ff9 943e 8efe 7c3e f732 26be
00000140: 6e6d 90bd 40a5 f63d 98c5 89be 7ea6 2e3e
00000150: 985e 193e 8e81 7f3e 3afd 1d3e 3546 10be
00000160: 9002 513d edfc 75be f660 91be 50ea 683d
00000170: 8850 dc3d 98e8 1bbd 50f4 373d fcc8 f8bd
00000180: 2013 26bc fc9a 9d3d 4be3 90be 6cf3 f23d
0.2343947 0.17465407 -0.14858642 -0.28721884 0.29745153 0.12105778 0.14038885 -0.06752722
-0.23131451 -0.30614486 0.110033184 -0.16225594 -0.06903154 0.17512283 0.14154944 0.2559453
-0.06846227 -0.20572755 0.20740834 0.2558274 0.014221907 -0.16399167 0.0037352443 -0.13193855
-0.25197914 0.23053947 -0.01530543 0.30403218 0.21977606 -0.0126592815 -0.070197016 0.06137368
0.10633704 -0.27528003 -0.29173154 0.07801589 0.09947729 -0.07567908 0.14486396 -0.08716744
-0.026819289 -0.267525 -0.26252818 -0.23934248 -0.19659923 0.22999159 -0.1926786 0.16937914
0.19488576 -0.20255223 0.08363742 0.10754183 0.0441128 0.06422788 -0.24851401 0.24100229
-0.23477602 0.009244919 0.0077429116 0.09932396 -0.20341116 -0.1707056 -0.15612558 0.22923186
-0.15989436 0.23324206 -0.25424758 0.17739862 -0.01123783 0.11774039 0.24239549 -0.2839266
0.006411642 -0.0034420192 -0.2808103 0.3097926 0.15308303 0.290966 0.2470648 -0.16230379
-0.07052122 0.12043238 -0.26908565 0.17055699 0.14977491 0.24951765 0.1542863 -0.14089282
0.051027834 -0.24022265 -0.28394288 0.056864083 0.107575476 -0.038063616 0.04491073 -0.1214771
-0.010136396 0.076955765 -0.2829841 0.11862835

net.6.bias f4 [10]
00000000: 203b 9c3c 303f 4dbe 00e7 e4bc e08a 343c
00000010: fe7a 273e e0b4 d5bc 80d9 a03d 6aac 473e
00000020: 3eab 6c3e b002 01be
0.019071162 -0.20043635 -0.02794218 0.0110194385 0.16355512 -0.026087224 0.07853985 0.19499364
0.23112199 -0.12598681

net.8.weight f4 [10, 10]
00000000: fa9a 79be ca5f a9bd 6749 8d3e 6688 773e
00000010: 8c71 b8bd 322b 503e 3fe1 813e 4826 643d
00000020: 75c6 8dbe 5bf1 8f3e acd2 843d 987c 203d
00000030: 547c 7fbe 561e 703e bc9a aa3d f604 643e
00000040: 0e88 8dbe e8b0 30bd ae4f 58be f444 2dbe
00000050: 97e5 893e f204 603e be46 4c3e d72b 75be
00000060: 0011 fdbb 0fca a13e 600b 263e 32fe 1abe
00000070: b1d4 8ebe 1809 b43d 4863 3e3d c415 223e
00000080: 912e 913e 7821 2d3e 879f 4ebe 989b 3bbe
00000090: fe9f cebd fcea 0c3e ae3b 0e3e 9e73 34be
000000a0: d01b 293d ac2c 2e3e 2d3c 00be 70c5 26be
000000b0: 840d 9fbe 9a91 103e ecbf 963d 52af 8bbe
000000c0: af00 86be 2854 573d 48d6 a73d 7cb4 12be
000000d0: 6c0a e5bd 2af0 4f3e faa5 b4bd 2cf0 f03d
000000e0: 93a0 9a3e 1b64 883e be52 6e3e a432 89be
000000f0: 3ecb 3fbe 8903 3fbe 9404 99bd 9216 b1bd
00000100: 2811 3f3d b473 4fbe b0e6 d5bc e23d e1bd
00000110: 246c f6bd 8cb7 aabd 33a2 953e f0a3 da3c
00000120: 909d 6ebd a0bf 783d 4030 f13c 5257 f5bd
00000130: e986 9bbe 4d0f 45be cb78 80be c615 433e
00000140: bb94 853e 6de4 5bbe c083 e4bc 0c42 a33d
00000150: d62b 473e c03b 53be 3200 9dbd eb83 9c3e
00000160: c0c4 92bc 7e05 243e b15f 18be a911 23be
00000170: 168d 29be 362d 8cbd bb2a a13e feef 783e
00000180: 87fb 61be 80f8 9cbc cc1e c8bd 8c93 2c3e
-0.24375525 -0.082702234 0.27595064 0.24173126 -0.09006032 0.20328978 0.25367162 0.05570057
-0.27690473 0.28113827 0.06485495 0.03918132 -0.24949771 0.23449072 0.083302945 0.22267517
-0.27642864 -0.04313746 -0.21124145 -0.16920835 0.26932976 0.21876886 0.19948861 -0.23942505
-0.007722974 0.3159947 0.16215277 -0.1513603 -0.27896646 0.08790797 0.0464814 0.15828615
0.2835584 0.16907299 -0.20178042 -0.18321073 -0.1008911 0.13761514 0.13889953 -0.1762223
0.04128629 0.17009228 -0.12522955 -0.16286254 -0.31065 0.14118043 0.07360825 -0.27282196
-0.26172397 0.052570492 0.08195168 -0.14326662 -0.111836284 0.20306459 -0.0882072 0.11764559
0.30200633 0.26638874 0.23273751 -0.26796448 -0.18729874 -0.18653692 -0.07471576 -0.08646883
0.04664722 -0.20258981 -0.026110977 -0.10998131 -0.12032345 -0.0833579 0.2922531 0.0266895
-0.058255732 0.060729623 0.029441953 -0.11979546 -0.30376366 -0.19244118 -0.25092158 0.19051275
0.26090035 -0.21473856 -0.027894855 0.07971582 0.19450316 -0.20628262 -0.07666053 0.30569395
-0.017916083 0.1601772 -0.14880253 -0.15924706 -0.16557726 -0.06844561 0.31477913 0.243103
-0.22068606 -0.019161463 -0.09771499 0.1685316

net.8.bias f4 [10]
00000000: 784d fd3d 668a 4d3e 7647 7a3e 7047 c1bc
00000010: 12cf 94bd a85d e0bd 9c6e 9b3d f851 403d
00000020: 97a2 9dbe bcf0 dcbd
0.123682916 0.20072326 0.24441323 -0.023593634 -0.07266058 -0.109553635 0.075894564 0.04695317
-0.3078811 -0.10788104

net.0.weight f4 [4, 10]
00000000: 58ce 123e c8eb 80bd 109b 12bd c085 b4bb
00000010: d1ca 20be d222 6f3e b410 94be 1a62 81be
00000020: 1cc5 853d 72ca 433e b228 723e bb8b 943e
00000030: 70ed ddbd 3cf2 d53d 105e bfbd cf6c 913e
00000040: c4c6 ad3d 6a79 1e3e b871 e03d 60db 933d
00000050: 9428 8ebe 6c76 3b3e 38ff 90be 8efa 6b3e
00000060: d68d 713e f870 11bd 14b0 f73d 1397 08be
00000070: a09f 903c 68d7 783d e907 923e 005c 3d3b
00000080: a486 c53d 5af9 393e 4c7e 053e 3446 093e
00000090: f064 e43d 908c 63be e852 50bd 3197 25be
0.14336526 -0.06294972 -0.03579241 -0.0055091083 -0.15702368 0.23353127 -0.28918993 -0.25270158
0.06531736 0.19120196 0.23648337 0.29012856 -0.10836303 0.10446593 -0.09344113 0.28403327
0.08485177 0.15476003 0.1095919 0.07219577 -0.27765334 0.18306893 -0.28319716 0.23044798
0.23589262 -0.035508126 0.12094131 -0.1333888 0.01765424 0.060752302 0.2852166 0.0028893948
0.09644821 0.18161526 0.1303646 0.13405687 0.11152065 -0.22221589 -0.050860316 -0.16170956

net.0.bias f4 [4]
00000000: 067b e6bd 841e 093e 46a1 113e 61bd 893e
-0.112539336 0.13390547 0.14221677 0.26902297

net.2.weight f4 [4, 4]
00000000: 3844 533e a2ce 8abe 705c fb3d 3cd3 7b3e
00000010: 4ce4 4b3e 3c98 7f3e 38bb d23d 2cde dc3e
00000020: ee8b d4be a4ae eebe 986a 26be 08c2 ed3e
00000030: d4b6 5a3e 8a06 b13e e875 fcbd c082 7cbd
0.20631492 -0.27110773 0.122734904 0.24592298 0.19911307 0.24960417 0.102896154 0.43138254
-0.41513008 -0.46617615 -0.162516 0.46437097 0.21358806 0.345753 -0.12327176 -0.06164813

net.2.bias f4 [4]
00000000: d21a f43e 0c9d 043e a465 12be 12af de3e
0.47676712 0.12950534 -0.14296585 0.43492943

net.4.weight f4 [2, 4]
00000000: 40a6 c63c c03a c5be 3889 8cbd 9e0b a03e
00000010: 9aa0 8f3e 58b6 d53d b4a9 c73e 7cd9 ea3e
0.024249196 -0.38521385 -0.0686211 0.31258863 0.28052217 0.1043517 0.3899666 0.45869052

net.4.bias f4 [2]
00000000: 3074 47be be94 dfbe
-0.19477916 -0.4366817

net.6.weight f4 [1, 2]
00000000: 5510 88be 9822 e7be
-0.2657496 -0.4514358
