model/wdgrl_2.pth (torch, 5490 bytes, 11 tensors)

net.0.weight f4 [10, 1]
00000000: 26b2 6dbe c554 8a3f 6000 573d 1002 f7bd
00000010: 5bec febd b334 8abf 4010 af3e 2007 31bd
00000020: 56d5 5a3f 3ecb 213f
-0.2321249 1.080712 0.052490592 -0.1206094 -0.12447425 -1.0797333 0.34192085 -0.043219686
0.85481775 0.6320075

net.0.bias f4 [10]
00000000: 60d0 363f 9df4 113f 4754 893e 92c3 2dbf
00000010: 30d8 e03d cd28 4abe 59df 19be e879 68be
00000020: 8acd 993c 6c31 74bf
0.71411705 0.57013875 0.2682211 -0.6787654 0.109787345 -0.19742127 -0.15026607 -0.22702754
0.018774766 -0.9538791

net.2.weight f4 [10, 10]
00000000: 1a7c 9e3e bf7f b53e dec5 4bbe f0ca bebc
00000010: 07a7 03be 8672 80be a563 bc3e 2708 9b3e
00000020: 730b 47be 091d 5f3e 4450 8d3d d435 61be
00000030: 270f abbe 3e5c 5d3e c3b6 99bd 1233 61be
00000040: 89e4 333e 9a09 023e eb06 f53d d9f4 16be
00000050: 8a26 0b3e e325 09be 0579 9e3e 4036 0bbc
00000060: 8b08 403e 8457 793a 3d2e 82bd 40ee e03d
00000070: 759a d33d 84db 74be 4d11 b43e f8a2 8abe
00000080: f358 4cbe ea91 543e f4b8 17be 9ffe cc3e
00000090: 01a8 393e 8c31 293e ff76 2e3e 4a6e 083e
000000a0: 461c 213e 95e3 8ebe eea2 1b3e 205b 8f3d
000000b0: 797e 53be 3d24 1cbe 5c1f 7cbe 509c 1a3e
000000c0: 3e91 55be 5e87 603e c868 df3d 8674 83be
000000d0: 76f3 613e b8c6 54be d6c8 0d3e 4be4 683e
000000e0: fdd3 be3e 9311 0ebe fa7c 0bbd d1fd 3dbe
000000f0: 4795 53be 5f6a 0cbe 5a1e 66be 9235 5c3e
00000100: 2630 243e ee1e d7bc 4035 e93b c421 dd3d
00000110: 0eac c3be 27ef 933e b73d 9bbe 1a45 e5bd
00000120: 02b3 473e 2e0a 1f3e a073 d83c 80cd de3c
00000130: c19d 8f3e f0f6 c4bc 725a afbd b426 c43d
00000140: c82c 54bd 966b 63be d391 9e3e fdf2 9f3e
00000150: 4f43 31be 3c20 f5bd 9628 8cbe 9cdc 7dbe
00000160: c5b8 03be c445 f13d f8e3 9abe 0027 083c
00000170: 00bb 503c a0b9 86bd 90df 8bbe f6f0 4dbe
00000180: 8728 a0be fe6b aebd c028 f9bc 5a2f 97bd
0.30954057 0.35449025 -0.19899699 -0.023290128 -0.12856685 -0.25087374 0.36794773 0.30279657
-0.19437961 0.2178842 0.06900075 -0.2199319 -0.33409998 0.21617219 -0.07505562 -0.21992138
0.17567648 0.12698975 0.1196421 -0.1474184 0.1358892 -0.13393359 0.30951706 -0.008496821
0.18753259 0.0009511637 -0.063564755 0.109829426 0.10332195 -0.23911864 0.3516945 -0.2707746
-0.19955806 0.20758787 -0.14816648 0.4003801 0.18130495 0.16522807 0.17037581 0.13323322
0.15733442 -0.27908006 0.15198871 0.069998026 -0.20653714 -0.15248199 -0.24621338 0.15098691
-0.20856187 0.21926638 0.10908657 -0.25674838 0.22065529 -0.2077893 0.13846144 0.22743337
0.3727111 -0.13873892 -0.034054734 -0.18553855 -0.20662414 -0.13712452 -0.22472516 0.2150481
0.16033992 -0.026259866 0.0071169436 0.10797456 -0.38217205 0.28893396 -0.30320522 -0.11194821
0.1950188 0.15531227 0.026422322 0.0271976 0.28050044 -0.02404353 -0.08562173 0.095776945
-0.05180052 -0.2220901 0.3097063 0.31240073 -0.17310832 -0.11969039 -0.27374715 -0.24791187
-0.12863453 0.11780885 -0.3025205 0.00831008 0.012739897 -0.06578374 -0.27319002 -0.2011145
-0.3128092 -0.085166916 -0.030414939 -0.073820785

net.2.bias f4 [10]
00000000: dade 03be 12ab a8bd 6d82 8f3e c518 a33e
00000010: 775a 7abe f67b 50be 6057 a83d 4c3b 95bd
00000020: a2dc 44be 2845 203e
-0.1287798 -0.08235754 0.28029194 0.31854835 -0.24448572 -0.20359787 0.082197905 -0.072867006
-0.1922479 0.15651381

net.4.weight f4 [10, 10]
00000000: c2d4 723e e9ac 0ebe 0897 c03d 676b 86be
00000010: c0ac 2ebe b07e 933c 0ce3 7abe a464 88be
00000020: d06e 84be 001b f4bb defd 203e fffd 8a3e
00000030: 77ff c73c 4812 073e 6091 ac3d 803a 4e3d
00000040: 5f99 033e cc14 a23d 88a9 313d 8a5a 723e
00000050: ad37 703b 0311 dd3c 4202 d6bd 1e73 303e
00000060: aab4 49be c2db 333e 679f fe3d a8eb 6cbd
00000070: f074 68be ca89 86be 31e0 7d3d 9db4 d33c
00000080: c4d7 1f3d 1731 18bd bad9 00be 4b4f 6ebe
00000090: 9ac4 34be 48a5 78bd 7005 8e3c 09a4 863e
000000a0: ce0a 3cbe 12d1 ae3d b03d 98bd d73f b6be
000000b0: c2eb 68be 2a0d 6ebd 3cae 3b3e 52f4 413e
000000c0: 2cb8 92bd 2c17 a1be 8c1c fa3d 5edf 8abe
000000d0: 3c25 7bbe d09a 8fbe 48e0 e7bd b80d 55be
000000e0: ff7a 8bbe 0624 693e da0d 5c3e 568f 103e
000000f0: 704b cebe 9711 b4be b05b 613c 44ca 733e
00000100: d803 73be 76d4 c83e 862e f8bd 0ef4 3fbe
00000110: c6e6 503e fedd 94be 0043 b63b 5de4 493e
00000120: 8e27 76be 077a cabe d38b 813e b3ec 263e
00000130: 8272 17bd 9f95 9cbe 7e68 bebd fa82 49be
00000140: 8609 9f3d d601 093e 2b3c b33d d0cb 533e
00000150: cd0c a1be 9461 9bbe 332a c1bc 8a82 08be
00000160: 1011 f2bd 8dcf 00be 8125 0ebe b40e 603e
00000170: 1d35 c83d e2ce 9a3d a408 aa3d def1 ffbc
00000180: 184c 643e 9c5a dc3d 0ab5 83be ddd1 9c3e
0.23713973 -0.13933147 0.09403807 -0.26253816 -0.17058086 0.018004745 -0.24500674 -0.26639283
-0.25865793 -0.0074495077 0.15721843 0.2714691 0.024413807 0.13190567 0.084261656 0.05034876
0.12851475 0.07914123 0.04337457 0.2366735 0.003665428 0.02698565 -0.104496494 0.17231414
-0.19697824 0.175643 0.12432747 -0.057841927 -0.22700858 -0.26277 0.061981384 0.025842959
0.03902413 -0.03715619 -0.12583056 -0.23272435 -0.17653123 -0.0607045 0.017336577 0.26297024
-0.18363497 0.08535971 -0.07433641 -0.3559558 -0.22746184 -0.058118023 0.18328184 0.18940857
-0.07164034 -0.3146299 0.12212476 -0.2712354 -0.24525923 -0.280478 -0.11322075 -0.20806015
-0.27242276 0.22767648 0.21489659 0.14117178 -0.4029193 -0.3516967 0.01375477 0.23807627
-0.23731935 0.39224595 -0.12118249 -0.18745443 0.20400533 -0.29075617 0.0055621862 0.1971602
-0.24038526 -0.39546224 0.2530199 0.16301231 -0.036974438 -0.30582902 -0.09297274 -0.1967887
0.07765488 0.13379607 0.087517105 0.20683217 -0.3145508 -0.30347884 -0.023579692 -0.13331047
-0.11819661 -0.12579174 -0.13881494 0.21880609 0.097757556 0.07558991 0.08302429 -0.031243261
0.22294652 0.1075947 -0.2572406 0.30628863

net.4.bias f4 [10]
00000000: 1cb4 27be 608f 673d b037 29be fd65 48be
00000010: 6587 c53b 48df 88bd acf8 1bbe 52fe 5d3d
00000020: 3c4e 153e 2033 c93d
-0.163773 0.056533217 -0.1652515 -0.19570155 0.006028103 -0.066832125 -0.1523158 0.054197617
0.14580625 0.098242044

net.0.weight f4 [4, 10]
00000000: 0128 b0be 84fb 22bd d04f cabe cf5c f6bb
00000010: f74c 9cbd ce2b 17be 5db3 a93d c8f8 28be
00000020: c682 6cbd 031c 043e a02a f4bc 00d6 583c
00000030: 7ebe 0dbe 6796 02be 6815 d23d 1cde 053e
00000040: 1973 23be f8e2 e23d d817 763d 50c9 a4bc
00000050: 75fd 493f 7ad5 5dbf 85b4 0e3f b9a0 423f
00000060: f3ff 2abf a14e 3a3f 12c4 c23d 580f 22bf
00000070: acee 51bf c5df 823e b060 833f d762 86bf
00000080: 8edd 113f a946 7f3f 1b90 69bf fbab 7f3f
00000090: 28ab 463d 4547 69bf c1f3 abbf b8a9 e53e
-0.3440552 -0.039790645 -0.39514017 -0.007518388 -0.076318674 -0.14762804 0.08286164 -0.16501153
-0.057741903 0.1290131 -0.029805481 0.013234615 -0.13842198 -0.12752686 0.10257989 0.13073009
-0.15961875 0.11078447 0.060081333 -0.020115525 0.7890237 -0.86653864 0.557442 0.76026493
-0.667968 0.7277623 0.09510054 -0.6330466 -0.8200481 0.25561348 1.0263882 -1.0498914
0.5697869 0.99717194 -0.9123551 0.99871796 0.04850307 -0.91124374 -1.3433763 0.44856048

net.0.bias f4 [4]
00000000: f019 35be b6dd a4bd edf0 86be 3a42 93be
-0.17685676 -0.080501005 -0.26355687 -0.28761464

net.2.weight f4 [2, 4]
00000000: 38ca 9fbd 1c5a dcbe 9803 a2be 5c48 5dbe
00000010: 6572 93bd 38d4 24be 851f 473f d601 6d3f
-0.07802242 -0.43037498 -0.31643367 -0.21609634 -0.071995534 -0.1609658 0.7778247 0.92580926

net.2.bias f4 [2]
00000000: 6ab1 dbbe 076e 893b
-0.42908794 0.0041940245

net.4.weight f4 [1, 2]
00000000: 306d ecbd e9ba 13bf
-0.11544263 -0.5770708
